This run had the following settings:
Track2 was used: True
Image augmentation was used with: 
 - flipping images: False
 - gamma correction: False
 - Brightness adjustment: True
Number of epochs: 5
Learning rate: 0.0001
Turning angle offset: 0.25
Image limitation per turning angle: 400
Train validation split ratio: 0.2
Generator was used: False
Keras layer summary: 
_________________________________________________________________
Layer (type)                 Output Shape              Param #   
=================================================================
cropping2d_2 (Cropping2D)    (None, 80, 320, 3)        0         
_________________________________________________________________
lambda_2 (Lambda)            (None, 80, 320, 3)        0         
_________________________________________________________________
conv2d_6 (Conv2D)            (None, 38, 158, 24)       1824      
_________________________________________________________________
conv2d_7 (Conv2D)            (None, 17, 77, 36)        21636     
_________________________________________________________________
conv2d_8 (Conv2D)            (None, 7, 37, 48)         43248     
_________________________________________________________________
dropout_4 (Dropout)          (None, 7, 37, 48)         0         
_________________________________________________________________
conv2d_9 (Conv2D)            (None, 5, 35, 64)         27712     
_________________________________________________________________
conv2d_10 (Conv2D)           (None, 3, 33, 64)         36928     
_________________________________________________________________
dropout_5 (Dropout)          (None, 3, 33, 64)         0         
_________________________________________________________________
flatten_2 (Flatten)          (None, 6336)              0         
_________________________________________________________________
dense_5 (Dense)              (None, 1000)              6337000   
_________________________________________________________________
activation_4 (Activation)    (None, 1000)              0         
_________________________________________________________________
dropout_6 (Dropout)          (None, 1000)              0         
_________________________________________________________________
dense_6 (Dense)              (None, 100)               100100    
_________________________________________________________________
activation_5 (Activation)    (None, 100)               0         
_________________________________________________________________
dense_7 (Dense)              (None, 10)                1010      
_________________________________________________________________
activation_6 (Activation)    (None, 10)                0         
_________________________________________________________________
dense_8 (Dense)              (None, 1)                 11        
=================================================================
Total params: 6,569,469
Trainable params: 6,569,469
Non-trainable params: 0
_________________________________________________________________
32006/32006 [==============================] - 88s 3ms/step - loss: 0.1469 - val_loss: 0.1135
Epoch 2/5
32006/32006 [==============================] - 88s 3ms/step - loss: 0.1026 - val_loss: 0.1057
…
